output/base_ade20k_no_lora.pt (torch, 616087 bytes, 1 tensors)

classifier.bias f4 [150]
0	0x3f041e4b	0.51608723
1	0x3e7cd8fe	0.24692151
2	0x3d8d286b	0.06892475
3	0x3dfcbd82	0.12340833
4	0x3e564a55	0.20926793
5	0xbdd43d9e	-0.10363315
6	0x3bb8aa9f	0.005635574
7	0xbdb1d5c8	-0.08683354
8	0xbd129467	-0.03578606
9	0x3de6d4b8	0.11271042
10	0xbceaeb85	-0.028676758
11	0xbdb98ead	-0.09060416
12	0x3e3933a5	0.18086107
13	0x3e0d418a	0.13794532
14	0xbd1bf32d	-0.038073707
15	0xbb9969dd	-0.0046818093
16	0x3d789756	0.0606912
17	0x3e364c6d	0.17802592
18	0xbe057336	-0.1303223
19	0xbdb7d47b	-0.08976074
20	0xbd881869	-0.06645281
21	0x3dac1f46	0.084044024
22	0xbdb771dc	-0.08957264
23	0xbe1d46cd	-0.1535904
24	0x3ba6f1a3	0.0050947233
25	0xbc9b631b	-0.018968156
26	0xbcb1633d	-0.021653766
27	0xbe146e9a	-0.14495316
28	0xbe475ba1	-0.19468547
29	0x3c81f737	0.015864952
30	0xbe2397eb	-0.15975921
31	0xbde334ca	-0.11094053
32	0xbcf97b55	-0.030454317
33	0xbde087fb	-0.10963436
34	0xbc2e90ec	-0.010654669
35	0xbdc49cc0	-0.0960021
36	0xbe29d0ec	-0.16583604
37	0xbe598c69	-0.21244968
38	0xbd8adfa5	-0.06780938
39	0xbe06fa56	-0.13181433
40	0xbcaae073	-0.020858979
41	0xbd2159f6	-0.039392434
42	0xbd648803	-0.055793773
43	0xbdca4594	-0.09876552
44	0xbe0d325d	-0.13788743
45	0xbd810114	-0.06299034
46	0xbdc1a171	-0.09454621
47	0xbe25393a	-0.16135111
48	0xbdbf2c4f	-0.09334623
49	0xbe22a928	-0.1588484
50	0xbe377c0b	-0.17918412
51	0xbe08e728	-0.13369429
52	0xbdaccc53	-0.08437409
53	0xbde237a6	-0.1104577
54	0xbe05238e	-0.13001844
55	0xbd6b043a	-0.057377078
56	0xbe7307c1	-0.23733427
57	0xbe2f7119	-0.17132987
58	0xbe165b90	-0.14683366
59	0xbe1aab7d	-0.1510448
60	0xbd72098d	-0.05909114
61	0xbdfa2d1f	-0.122156374
62	0xbdccc74b	-0.099989496
63	0xbe1ddb2d	-0.1541564
64	0xbe4acede	-0.19805476
65	0xbe221634	-0.15828782
66	0xbd6d169a	-0.057882883
67	0xbdf14437	-0.11780589
68	0xbd8904e4	-0.06690386
69	0xbe2bc21a	-0.16773263
70	0xbe11afff	-0.14227293
71	0xbe6f8761	-0.23391487
72	0xbe16575a	-0.1468176
73	0xbe2bee5d	-0.16790147
74	0xbe301979	-0.17197217
75	0xbe0435ce	-0.1291115
76	0xbda2f514	-0.07956901
77	0xbe0fdcb9	-0.14049043
78	0xbe1fc2cc	-0.15601653
79	0xbdf4ecc6	-0.119592234
80	0xbe29cf3c	-0.1658296
81	0xbe26fc02	-0.16307071
82	0xbe9315a4	-0.28727448
83	0xbe09a133	-0.13440399
84	0xbdb053a6	-0.08609705
85	0xbe4730d2	-0.19452217
86	0xbe2847ac	-0.1643359
87	0xbe3cf185	-0.18451507
88	0xbdb87fda	-0.09008761
89	0xbe426e82	-0.18987468
90	0xbe4b1e73	-0.19835834
91	0xbdf115b4	-0.11771718
92	0xbe09a24d	-0.13440819
93	0xbe0c036f	-0.13673185
94	0xbda10f97	-0.07864302
95	0xbdb94ade	-0.09047483
96	0xbe49a242	-0.19690803
97	0xbe4689b1	-0.19388463
98	0xbdfea4a3	-0.12433746
99	0xbe053255	-0.13007481
100	0xbdd4c38c	-0.1038886
101	0xbdd636a6	-0.10459642
102	0xbe12eaaa	-0.1434733
103	0xbe07568d	-0.1321661
104	0xbe078d1d	-0.13237424
105	0xbe2bc1d4	-0.16773158
106	0xbde2ada9	-0.11068279
107	0xbe53e747	-0.20693694
108	0xbe0f55a7	-0.13997518
109	0xbe3e5884	-0.18588454
110	0xbe258085	-0.16162308
111	0xbe4a410f	-0.1975138
112	0xbe3e044f	-0.18556331
113	0xbe2eb1e4	-0.17060047
114	0xbe1b1c44	-0.15147501
115	0xbe19e0c1	-0.15027143
116	0xbe329e55	-0.17443211
117	0xbe2e8051	-0.17041136
118	0xbe217d18	-0.15770376
119	0xbdf7e741	-0.12104655
120	0xbda14a0d	-0.07875452
121	0xbda57e81	-0.08080769
122	0xbdf741aa	-0.12073071
123	0xbe15cb75	-0.14628394
124	0xbe53f8bb	-0.20700352
125	0xbe36a673	-0.17836933
126	0xbdd8d94f	-0.10588323
127	0xbe3911b5	-0.18073161
128	0xbdadf9ad	-0.084948875
129	0xbe2e765a	-0.17037335
130	0xbe422bf1	-0.18962075
131	0xbe2a9d4c	-0.16661566
132	0xbe1c8321	-0.15284397
133	0xbe638b6a	-0.22221151
134	0xbe750207	-0.23926555
135	0xbe528573	-0.2055872
136	0xbe346fdc	-0.17620796
137	0xbe06bf7f	-0.13158987
138	0xbe284fc9	-0.16436686
139	0xbe4da2cd	-0.20081635
140	0xbe27392f	-0.16330408
141	0xbe10c39f	-0.14137124
142	0xbe466307	-0.19373713
143	0xbe0dfe33	-0.138665
144	0xbe0eb3c8	-0.13935769
145	0xbe03df02	-0.1287804
146	0xbe2f66c7	-0.1712905
147	0xbdeed247	-0.11661201
148	0xbe587c35	-0.21141131
149	0xbe57b028	-0.21063292
