output/base_voc_no_lora.pt (torch, 87187 bytes, 1 tensors)

classifier.bias f4 [21]
00000000: 3ecf 2f3e d1dc 19be 293d f3bd c58e 10be
00000010: dcd6 18be f397 d7bd fa63 2bbe f062 edbd
00000020: 4626 2bbe 001d 35be ff57 00be a778 0bbe
00000030: c3fc 2dbe 742b bcbd 2f4a ffbd ca30 20be
00000040: 8f4b 05be 9699 0bbe 0a14 2abe 7084 27be
00000050: e412 1bbe
0.171689 -0.15025641 -0.118769 -0.14116962 -0.14925712 -0.10527029 -0.16737357 -0.115911365
-0.16713819 -0.17686844 -0.12533568 -0.13620244 -0.16990952 -0.091879755 -0.12465321 -0.15643612
-0.13017105 -0.13632807 -0.16609207 -0.16359115 -0.15143925
