output/base_voc_no_lora.pt (torch, 87660 bytes, 1 tensors)

classifier.bias f4 [21]
0.17236285 -0.14251809 -0.096801594 -0.122681916 -0.09590413 -0.08927336 -0.12880687 -0.15790044
-0.1373994 -0.15960668 -0.14969395 -0.11797588 -0.14983271 -0.13052678 -0.13432947 -0.17511916
-0.123852566 -0.10705695 -0.12226011 -0.14140742 -0.11967721
00000000: e37f 303e 43f0 11be ea3f c6bd a840 fbbd
00000010: 6269 c4bd f4d4 b6bd f3e5 03be a7b0 21be
00000020: 6eb2 0cbe ef6f 23be 5f49 19be 579d f1bd
00000030: bf6d 19be d0a8 05be aa8d 09be 7052 33be
00000040: 6aa6 fdbd ad40 dbbd 8263 fabd 1bcd 10be
00000050: 5319 f5bd
